Project/Assets/ML-Agents/Examples/3DBall/TFModels/eds-3dball.onnx (onnx, 73999 bytes, 9 tensors)

network_body.observation_encoder.processors.0.normalizer.running_mean f4 [8]
00000000: be13 9aba b98e 163a 15b4 3fbe ada2 4340
00000010: bf3f ccbd 1816 72bb 7622 80be bc0f ddbb
-0.0011755151 0.0005743313 -0.1872104 3.056804 -0.09973096 -0.0036939438 -0.25026292 -0.0067462604

network_body._body_endoder.seq_layers.0.weight f4 [128, 8]
00000000: cef9 41bf 0c4c 163f 8abd 543c 7c63 273d
00000010: 1093 b83e d565 ab3d 9ad5 adbe 209e bebd
00000020: 705a 2ebf 98d5 1e3f 0f22 bb3e aedc 26bf
00000030: 79b5 c23d 33fd 343e 2629 9bbe 5599 293f
00000040: 4695 fbbc 9384 a1be f54f a13e 4be9 533c
00000050: 6162 34bf d7ce 5d3f adf2 b43e a845 7a3e
00000060: 0d55 0f3e 5777 4fbe 5f44 b7be 4240 323d
00000070: 56fa 773d 548c 2fbe bf7f de3e fb3c 923e
00000080: a43f 19bf 5c9a 243e 7b0d 923c 8c9b b2be
00000090: 3a2e 89be 0a38 a0be 104b 1c3e 5772 0b3e
000000a0: daaf a5bc a1be aa3e 4b31 d73e c935 bdbe
000000b0: 7f07 1abf 11d7 e3be cc07 253f dae4 d9bd
000000c0: 6b41 c0bb ac22 84bd 8d49 8c3c eb3d b33e
000000d0: 3f40 febe 913e 963e 550c 833c 6552 433e
000000e0: 3169 243e a09a 37be a045 e43c fd0d e63d
000000f0: 6439 8dbe a4cb c2be 9041 8dbe b6d3 f53d
00000100: 5e93 c73e 2d44 f03e 905a 703e 261b 6abc
00000110: 55a4 47be bc46 c8bc e32b 04be 4151 7cbe
00000120: baf1 033f cbed 41be 2014 163e b869 f8be
00000130: 0b8a 563e a05f 953e 245a eebe 434e debe
00000140: 3b74 ccbe c5bf d2bd aa35 e83c 74e6 803e
00000150: b2f0 fb3e 4880 1bbe 8f13 233f e6b7 793f
00000160: 80c4 073f 7772 acbe 490d 6c3c 139b e3bc
00000170: 0c2e 8b3d 28d3 813e d846 3bbe 756b a33d
00000180: bd60 81be aa78 1cbf 951d abbd 79de 963e
00000190: 5682 99be d5a0 72bd 755b 4c3e cf92 933d
000001a0: 01e2 633d cd07 733f ebd0 57be 1eed b03e
000001b0: 2f84 f7be d442 803e 714a 8c3d cbbc c73d
000001c0: ee42 a73e a406 95be 1520 08bf 31dd 8e3d
000001d0: 1f88 4bbf 572f 023e 82e1 e43d df28 893b
000001e0: 0d2b 643e 6187 4b3e 7c60 e43d 4d35 ac3e
000001f0: 9420 43be 60ab cb3d b490 e03e 8af2 e53d
00000200: 89a1 c9bd ad7e ac3d cbef d03e d4a3 ae3e
00000210: c620 22bc 8d8a 7ebd 3065 34be 5fe7 813e
00000220: 616d 3ebe f9f3 f0be 40c2 d3bd 5100 bc3e
00000230: 1baa dfbe e5e8 69be 82ed 0fbf a707 c23e
00000240: d820 5d3e 490f 3bbe ee35 86be 25b4 f5bd
00000250: 05cf b4bd e9e3 a6bc 4baf ebbe 9d47 18be
00000260: 1d07 38be 26cf 053f ed50 e13d b295 613e
00000270: d3fc b0be d57c d8be a3da a23e abf5 86bd
00000280: c734 8ebe cb13 b8bd b45f 27bf 7945 42bf
00000290: d293 763d 690c 4cbf 383f 963e 8306 d03e
000002a0: 63b8 01be 6bd8 77bc 202e bebe 9d26 893e
000002b0: eabf 543e bef7 963e 0c35 87be e04e 9f3e
000002c0: ca68 103e fb99 843d 6909 8abe 7795 f2bd
000002d0: 6a3f c43d 5452 3a3d 78e5 313f e971 84be
000002e0: 4cf4 0ebe 1254 b83e 297b c53e ffc8 473b
000002f0: eb37 a6bd 05de f53d d561 ed3d 3857 213f
00000300: 9c10 473e 3424 23be cdf9 51bf fc9b f4be
00000310: ce5b c63e 6382 b53d 40c9 243f c33f 9abe
00000320: 0524 36bf 7f82 2abf 3ba0 613f b701 1f3f
00000330: 0ca1 4dbc 16f8 d4be 320d 843e 9705 ab3d
00000340: de25 313e f2f2 803e 3eaf 04bf e040 ba3e
00000350: a1f3 01bd ac30 3abe 3ab7 813d 554f 95bc
00000360: c5db 02be a5f6 9c3d f69e da3e 7e34 6e3e
00000370: f9af eebd 87f7 a6bd 9f1b 163e 350a 5a3c
00000380: f1dc 4bbf df69 05be 3907 11bd 19eb 3b3f
00000390: 6d30 e1be e483 6bbe 39a8 05bc db6d 0fbe
000003a0: 1610 a4be 3cb7 e2be 9097 383e 950c 00bf
000003b0: 67b1 d73e 6217 1abe 23ec debd e3a9 e03c
000003c0: e808 99be ed55 643e c010 693e 5181 ea3d
000003d0: cb78 bcbd 2ba4 f43e dfbe 813e 7f7d 97bd
000003e0: 52f0 1b3e e2f5 a0be 659f c63e db32 01bf
000003f0: 3c4a 2e3e f995 49be 0cb2 923d c31d 25be
-0.75771797 0.5870979 0.012984643 0.04086636 0.360497 0.08369032 -0.33952028 -0.09307504
-0.68106747 0.6204467 0.36549422 -0.6518048 0.095072694 0.17674713 -0.3030483 0.6624959
-0.030710828 -0.3154646 0.31506315 0.012934039 -0.70462614 0.8664374 0.35341397 0.24440634
0.13997288 -0.20260368 -0.3579435 0.043518312 0.060541473 -0.17143375 0.43456838 0.2856215
-0.5986273 0.16074508 0.017828694 -0.34884298 -0.2679308 -0.31292754 0.15263009 0.13617836
-0.020225454 0.33348563 0.42029795 -0.36955097 -0.6016769 -0.4450002 0.6446502 -0.10639353
-0.0058671734 -0.06451926 0.017124915 0.35008177 -0.4965839 0.2934461 0.015997091 0.190744
0.16055752 -0.17930079 0.027865231 0.11233137 -0.27582848 -0.3804599 -0.27589083 0.12003271
0.3897962 0.46927014 0.23472047 -0.014288699 -0.19496281 -0.024447791 -0.12907366 -0.24640371
0.5154072 -0.18938367 0.14656115 -0.48518157 0.20951097 0.2917452 -0.46553147 -0.43419084
-0.39932427 -0.102904834 0.028345902 0.25175822 0.49207073 -0.15185654 0.6370172 0.9754623
0.5303421 -0.3368108 0.014407464 -0.027783906 0.06795892 0.25356412 -0.18288743 0.0797948
-0.25269118 -0.6112162 -0.08355252 0.29466608 -0.2998225 -0.059235413 0.19956763 0.07205736
0.055635456 0.9493378 -0.2107579 0.34555906 -0.48343036 0.25050986 0.06850136 0.09752806
0.3266825 -0.2910663 -0.53173953 0.06975783 -0.7950458 0.12713371 0.11175825 0.0041857804
0.22282048 0.19875862 0.111512154 0.33634415 -0.19055396 0.099447966 0.438604 0.11227901
-0.098452635 0.08422599 0.40807948 0.34109366 -0.009895509 -0.06214385 -0.17616725 0.25371835
-0.18596412 -0.47061136 -0.103397846 0.3671899 -0.43684468 -0.22842748 -0.56221783 0.37896463
0.2159456 -0.1826755 -0.2621302 -0.119972505 -0.08828548 -0.020372348 -0.46032175 -0.14871068
-0.17971464 0.5226921 0.110017635 0.2202976 -0.3456789 -0.4228274 0.31807432 -0.06589826
-0.2777464 -0.0898815 -0.65380406 -0.75887257 0.060199566 -0.79706436 0.29345107 0.40629968
-0.12667994 -0.015127282 -0.37144566 0.26787272 0.20776334 0.29485887 -0.2640766 0.31114864
0.14102474 0.06474682 -0.26960304 -0.118449144 0.09582408 0.04548867 0.69490767 -0.25868157
-0.1396038 0.3600164 0.38570526 0.0030484793 -0.08116134 0.120052375 0.115909256 0.6302371
0.1943993 -0.15931779 -0.8202179 -0.47775257 0.38741916 0.0886276 0.64369583 -0.3012677
-0.7114871 -0.6660537 0.8813512 0.6211199 -0.012550604 -0.41595525 0.25791317 0.083506756
0.17299601 0.25185353 -0.518299 0.3637762 -0.031726483 -0.1818263 0.06333776 -0.018226305
-0.12779148 0.07664231 0.42699403 0.23262212 -0.11654658 -0.08152681 0.14658974 0.013308098
-0.79634005 -0.13028668 -0.03540728 0.73405606 -0.43982258 -0.22999531 -0.008157783 -0.1400675
-0.32043523 -0.44280422 0.18026567 -0.500192 0.42127535 -0.15047982 -0.10884883 0.027424758
-0.29889607 0.22298403 0.22760296 0.114504464 -0.09202727 0.477815 0.25340936 -0.07396983
0.15228394 -0.31437594 0.38793483 -0.50468224 0.17020506 -0.19686116 0.07162866 -0.16124634

network_body._body_endoder.seq_layers.0.bias f4 [128]
00000000: 36b8 833c 429f 91bd 73e7 4a3d 86f3 cdbc
00000010: 3d0a e7bd 5826 d4bc ec6c b5b9 578b 59bd
00000020: 3ea0 64bd 28c5 62bc e859 1b3d a35d dabd
00000030: 8fe1 253c 4203 553c b9fb 0bbd 4976 24bc
00000040: 10db 243d 379c aabb a039 28bd bd15 773c
00000050: 02bc 66bd c224 67bc 3c37 413c 1664 093d
00000060: a0b6 d4bc 7c32 223d a66d 4b3b 8d9b 483d
00000070: 2768 853c dab5 90bd 62dc 2e3c 3d96 e0bc
00000080: 2259 17bd d2a5 a3bd eb05 cb3b 0d51 42bd
00000090: c2d4 e2bc 12ed 2abd 5772 91bd 3735 ecbb
000000a0: 389f 50ba 9a5d bf3c a14f 0fbd 59f1 82bc
000000b0: 6340 d83b 18b8 4abd 37db fbbc 31d4 2dbd
000000c0: baca c2bb 5cd3 4a3b c32b acbd 4d8a 62bd
000000d0: 9c34 9b3c 1c20 5cbd ac1a 82bc 0d3b 613c
000000e0: 5308 e83b 5c0b febb cbf3 edbc 594a 10bc
000000f0: c604 b6bc f5ad a3bd 7ed8 8a3b e21a 1bbd
00000100: 214c a6bd f2b5 44bd 1f8a 403c 91f9 673c
00000110: b7f7 cebd d0ed 9b3b f727 233d a7bc b5bc
00000120: 4394 873d 13e5 a3bb 3306 803c 90d7 a33c
00000130: 94fa 28bb 26f9 dd3a ef20 843c ce93 293c
00000140: 23b3 033d ad72 f0b9 8a2a 0abd 2c20 9fbd
00000150: 2dcf 8fbd 567c b33c fd13 023d 20bc b9b9
00000160: 6f36 25bd 791b 01bd 89c9 54bd 9ab4 a0bd
00000170: b744 9a3b d577 0d3d 4517 833c 3f5f e6bc
00000180: 00ca 193d 1474 733c cf1b 95bc b119 60bc
00000190: 226d fe3c 703d 71bb 87bd 84bb c504 b53b
000001a0: 0a7c 67bd 61de 5dbd 33ab eebc 1c59 79bb
000001b0: e80b d0bd 0d3f 873d 729b 9cbd af2e e7bb
000001c0: 5703 da3c 8721 d8bc 732f aabc 4b81 3dbd
000001d0: 2f85 9d3b 1408 78bc 4385 0bbd 011e a6bd
000001e0: 36f0 4e3c e0be 7fbd 1f7b 1dbd 1f31 203d
000001f0: 97b7 20bc 41df 49bd a856 b93c 3197 35bc
0.01607905 -0.07110454 0.049537133 -0.025140535 -0.1128125 -0.02589719 -0.00034604163 -0.0531114
-0.05581688 -0.013840951 0.03792754 -0.10662391 0.010124578 0.013001265 -0.03417561 -0.010037967
0.040247977 -0.0052066105 -0.04107058 0.015080866 -0.056331642 -0.014107885 0.011792954 0.033542715
-0.025965989 0.039598927 0.0031040697 0.04897647 0.016285015 -0.070659354 0.010672661 -0.02741539
-0.036950238 -0.07990612 0.006195774 -0.047440577 -0.027689341 -0.041729994 -0.07101887 -0.007208492
-0.0007958296 0.023360062 -0.03498805 -0.015984224 0.0065994724 -0.04949197 -0.030744178 -0.04243869
-0.005944577 0.0030948734 -0.084067844 -0.055307675 0.018945985 -0.05374156 -0.015881859 0.013746989
0.0070810704 -0.007752819 -0.029046914 -0.008806788 -0.022219073 -0.07992164 0.0042372337 -0.037867434
-0.08119989 -0.04802508 0.011751681 0.014158622 -0.101058416 0.004758574 0.039833035 -0.022184683
0.066200756 -0.005001673 0.015627956 0.02000025 -0.0025784122 0.0016935214 0.016128985 0.010350181
0.03215326 -0.00045861807 -0.033731975 -0.07769808 -0.070219375 0.021909874 0.031757344 -0.00035426114
-0.040335115 -0.03152034 -0.05195001 -0.07846947 0.0047078985 0.03453811 0.016002307 -0.028121589
0.037546158 0.014859218 -0.018201737 -0.013678 0.031057898 -0.0036810301 -0.0040509137 0.00552425
-0.056514777 -0.054167155 -0.029134369 -0.0038047498 -0.10158521 0.06603823 -0.07646836 -0.0070551257
0.02661292 -0.026383175 -0.020774579 -0.04626588 0.0048071365 -0.015138645 -0.034062635 -0.081111915
0.012630513 -0.062437892 -0.038447496 0.039109346 -0.009809396 -0.049285177 0.022624329 -0.01108341

network_body._body_endoder.seq_layers.2.weight f4 [128, 128]
00000000: 3546 1cbd 1194 35bd 6981 853d 50f5 873e
00000010: 3809 9a3d 2815 993d e162 9bbc e9bb 3bbc
00000020: 4f69 7d3d c8f3 303d f58b 233b 6402 97bd
00000030: f8ca 0bbe f0ea adbc 8246 c4bd df1d 323e
00000040: a6ca 263e b77c acbc 2356 88ba fd83 693d
00000050: efd7 63bc 908f 373d fe0e 61bd 039f 4dbc
00000060: 68cb 083e 736b 0bbe 0170 3ebe 06ba 79bd
00000070: 88a2 c5bd 0903 33bd a41b 83bd c09e 073d
00000080: 01ac 633d 8c1a 7b3e ce78 79bd c443 8ebd
00000090: 2555 703d 6eac 1f3b dc59 003e ce29 a53d
000000a0: b473 2b3d 742d 0a3d d9cc 7e3d beaf 0cbd
000000b0: 12f4 993d 6e30 ffbd 6d8f 94bd 7d4a 0cbd
000000c0: e7fb e0bc c74b f9bd 23d1 173e 59e6 003e
000000d0: af14 0e3b cf23 9e3d cb23 153e 4e42 b93d
000000e0: 5306 14bb 1ad6 2dbd 8504 7dbd 5992 f83c
000000f0: 52ac b2bd 85cc 2f3e 62ed 1d3e 9317 2e3d
00000100: 0c04 323d dde5 e8bd 11ee e53b 7efa d8bd
00000110: aec1 063e c234 24be 7cc4 a8bd a235 453d
00000120: 712d f4bc 352c dbbb 6e0e de3d 8c6c 9ebd
00000130: 63f1 133e 6d4b ca3d c73c 73bd a44f 873b
00000140: b1f8 4a3b ead4 683d c13c dfbd d7b2 b7bc
00000150: 3d94 e33d 19c4 9d3d 7b73 4e3d 7b09 8ebc
00000160: bdcd 053d ea2c 0f3e 0b35 1b3c 8f9a 81bc
00000170: a163 16be 61b9 b9bc 8e8a 04be de1f 90bd
00000180: 1f5a 37be 3190 183d 3ec8 ecbc 013d 1dbd
00000190: 98cf 72bc 397c 10be d0ee 943d bccf c33d
000001a0: 30d9 c23d 5346 c7bc 27d3 cabd ef1a b93d
000001b0: a6c9 043d dd03 99bd 5847 0f3e 4469 0fbe
000001c0: c4fc de3c 4703 adbc 2ab6 f23d 73ed 2abd
000001d0: 5883 a93d 31e6 a5bd 739a 8a3d 7c08 eb3d
000001e0: 3e5c 8abc f2de a7bd 92df b5bc 5e66 2fbc
000001f0: e77b e83d 48d8 2c3e d1c4 9d3d a0e6 e5bc
00000200: 6da2 15be 060f 23be bd69 c7bd 2b35 183e
00000210: ee69 30be a33c fcbd a00c e5bb 3d86 073e
00000220: af00 a03d 7ec0 88bd 55cd 92bd 671f e4bd
00000230: 25c7 cd3c b438 4f3c a264 bebd 182b 65bc
00000240: d817 a6bb b40f 363d 2f17 b83d 58bc 08bd
00000250: 78ea 0e3e fc83 d0bd a1ae b4bd 972c 12be
00000260: 5762 32be fdae debd 2146 f73d 07d2 30be
00000270: 3ccb 0bbd ea45 9f3d bded 6c3c 9471 b43c
00000280: 0770 d63d 9dd4 43bd c26b 363e 41d3 31bd
00000290: 085c 923d ade8 64bd f125 dabd ba37 85bd
000002a0: 7b03 9b3c 2df2 4fbd 7681 d53d c3a1 723d
000002b0: af16 813d e1bf 623d ee3b 1abd 0f5b c5bd
000002c0: 9e31 afbd 9d78 2fbe f1e4 623d 8332 a43d
000002d0: 8878 f93d 4a59 b0bd ceed 4f3d 5c78 e73c
000002e0: fcf6 00be 462e 473e 1198 8eba b6f2 b73d
000002f0: cbff adbd 20ca b9bd 64f9 3abc ad6e aebc
00000300: adf6 06be c5f5 bb3d 3ddf 883c 0c22 99bd
00000310: 002c 8b3e d3f0 0e3e 25ff 1cbd 5151 8a3d
00000320: 2817 5dbd 91c1 da3d b329 9dbd cc78 6cbe
00000330: 5d4b 003e c602 463e cae4 7dbe 89f1 10be
00000340: d237 22be cf94 08bd b758 fcbd a5c9 77bd
00000350: 4b02 e7bc eac6 183d 9c6d 37be 9a7b 99bb
00000360: 4946 b53d 063c ddbd 264f 6d3d 8d3e d03d
00000370: 9b31 92bc a9f5 e63c 6c37 c43d e46d ed3d
00000380: e1e8 15be 0500 81bd 4e0f e7bd 08c3 ae3b
00000390: a980 c5bc 6c8e 2b3d c318 03be ac26 8b3d
000003a0: 97cb ecbd 8c5f b53d 0e3d 3dbd 025f 67bc
000003b0: 88f8 163e e8a0 bcbd a3fc 813d 8722 a43d
000003c0: 9ded a93d c7eb 0dbe 9ebd 873d 027b b0bd
000003d0: 77f8 1fbc a413 c03c a52b 51bc 3807 013e
000003e0: da72 e33c 2fc3 65bd 3856 e0bc 0590 38be
000003f0: 16e8 333c c1fe 6a3b c08d 183c 12c2 08bd
-0.038152892 -0.04433066 0.06518824 0.26554346 0.075212896 0.07474738 -0.018968048 -0.0114583755
0.06186801 0.043201238 0.0024955247 -0.07373503 -0.13651645 -0.021230191 -0.09583761 0.17394207
0.16288242 -0.021055562 -0.0010401647 0.05701064 -0.013906463 0.044814646 -0.05494594 -0.012550118
0.13358843 -0.13615207 -0.18597414 -0.06096842 -0.09650141 -0.043704066 -0.064017564 0.03311038
0.055583958 0.24521846 -0.060906224 -0.06946519 0.05867495 0.002436425 0.12534279 0.08064614
0.04185839 0.033734754 0.062207077 -0.03434729 0.07517256 -0.12460409 -0.07253919 -0.034250725
-0.027463866 -0.121726565 0.14825873 0.1258787 0.002167981 0.07721674 0.14564435 0.0904585
-0.0022586777 -0.04244051 -0.06177189 0.030343222 -0.08724274 0.17167862 0.15422586 0.04250295
0.04346089 -0.11371968 0.007016905 -0.105946526 0.1315982 -0.1603575 -0.082406014 0.04814685
-0.029806824 -0.0066886195 0.10842596 -0.077355474 0.1444755 0.098776676 -0.059384134 0.004129367
0.0030970986 0.056843676 -0.1090026 -0.022424145 0.111122586 0.07703418 0.0504031 -0.017338505
0.03266691 0.13981977 0.009473096 -0.01582077 -0.14686443 -0.022671403 -0.1294348 -0.07037328
-0.17905472 0.037246887 -0.028904077 -0.038388256 -0.014820002 -0.14109887 0.07272112 0.095611066
0.095140815 -0.024325525 -0.09903555 0.0903834 0.03241887 -0.0747144 0.13992059 -0.14005
0.027220137 -0.021119727 0.11851151 -0.041730355 0.08277005 -0.08100546 0.0676774 0.11476228
-0.016889688 -0.0819682 -0.022201333 -0.010705559 0.113517575 0.1687938 0.077035554 -0.028064072
-0.14612742 -0.159237 -0.09736965 0.14864032 -0.17227909 -0.12316253 -0.0069900304 0.13234802
0.078126304 -0.0667734 -0.0716807 -0.11138802 0.025119374 0.012647796 -0.09296538 -0.013987325
-0.0050687604 0.04444857 0.08988797 -0.033382744 0.1395663 -0.10181424 -0.0882237 -0.14274822
-0.17420326 -0.1087322 0.12073923 -0.17267619 -0.034129366 0.07777007 0.014460978 0.022026815
0.10470586 -0.047810186 0.17814544 -0.043414358 0.0714646 -0.05588596 -0.10651768 -0.065047696
0.018922558 -0.050768066 0.10425083 0.0592363 0.06303155 0.05535877 -0.03765481 -0.09636509
-0.085543856 -0.17135854 0.055394117 0.08017447 0.12181193 -0.086107805 0.050763898 0.028255634
-0.12594217 0.19451246 -0.001087906 0.0898184 -0.08496054 -0.090717554 -0.011411998 -0.021293009
-0.13180037 0.09177736 0.01670801 -0.07477197 0.27182007 0.13959055 -0.038329262 0.06753791
-0.05397716 0.10681451 -0.07673969 -0.23092955 0.12528749 0.19336995 -0.24794307 -0.14154638
-0.15841606 -0.03334504 -0.123216085 -0.060495038 -0.028199336 0.037299074 -0.17912906 -0.004683924
0.088512965 -0.10802464 0.05793681 0.101681806 -0.01784592 0.028193312 0.095808834 0.115932256
-0.14639618 -0.06298832 -0.11282216 0.005333308 -0.024109202 0.04188387 -0.12802415 0.067944854
-0.11562269 0.08856115 -0.046200804 -0.014121773 0.14743245 -0.09210378 0.06347015 0.08014398
0.08297274 -0.13859473 0.066279635 -0.08617212 -0.0097638285 0.023446865 -0.012766753 0.1260041
0.027764726 -0.056094345 -0.027384862 -0.18023689 0.010980627 0.0035857412 0.00931114 -0.033388205

network_body._body_endoder.seq_layers.2.bias f4 [128]
00000000: ce4a b4bc cf45 403c 9fe4 f1ba 11e0 06bd
00000010: 287b 98bb fcf0 e83c 6bfa cbbc 95e6 1f3b
00000020: e7b4 a5bc 1992 9d3c 41ef a0ba f98b fa3c
00000030: 58ed 313c ea77 513b ed61 dbbb bca9 f8bc
00000040: 9ff0 cabc c01c 493a e9f6 1abd a525 3a3c
00000050: 90b2 b83c 8fb4 1ebd b279 9d3c 6806 773c
00000060: 4d22 b6bc 464c c0bc 32b4 e83b 8367 3a3c
00000070: 7bac 363d e8e6 30bc e81c 0cbc d219 f8bc
00000080: 5680 9bbc 32c0 9abc 3259 5d3d adbc 09bd
00000090: b1f2 d13c 28b6 573d 46c4 483d cc9f 8abb
000000a0: 5e6d ff3b 8791 2fbc bd6e 233d e009 6c3d
000000b0: 5b86 c7bc 4e06 65bc 49ed 813c 37b4 9dbb
000000c0: 2a40 603c 6546 d9bc 1e45 823c db01 8f3d
000000d0: a78e 873c 2e40 29bc 5bc8 f037 8bbe 443c
000000e0: 67c2 22bc c461 343a bdb0 8cbb aa88 c5bb
000000f0: 6f10 e83c d986 02bc aeb9 113b 8a86 0abd
00000100: 855c b33b 066d aabc 9222 fbbc 6dcb c9bb
00000110: 2ed3 8f3c da45 a6bc a7d0 08bd d602 113c
00000120: 0ea0 44ba f8bf f0bc c200 863b dd2a 1e3d
00000130: c622 8cbc d8c5 2a3d a845 a2bc 6221 303c
00000140: f606 bcbb 58b8 4e3d 85e1 aebb 22f6 223d
00000150: 6838 d03b 9aab 0e3d 569f fb3b 6906 e4bc
00000160: 0fcd 563d 0b92 263d 69ce fdbc 767f f8bc
00000170: 33c9 aabc fddc 4c3d c145 c03a 6ff1 48bd
00000180: 6062 f9bb 21b0 5a3c 7727 8cbc 5be4 7fbc
00000190: 7563 33bd fd7e 52bc 8dd1 1cbd 12fe 8b3b
000001a0: 6718 99bb 351a 383b dcac f0bc 8540 823d
000001b0: 04e0 64bc dfb1 f33c a831 fd3c 952f c43c
000001c0: 2001 d0bc 19cd 8e3c 3d86 95bc ed86 c7bc
000001d0: d85e 8cbc b686 47bd 4d18 5d3d aa55 38bc
000001e0: f0d6 3c3c 5707 45bc 55c9 bfbc 2b88 c23b
000001f0: ea1b 49bb dfa8 b43a 9002 d1bc bf34 5c3c
-0.022008326 0.011735394 -0.0018454975 -0.03292853 -0.0046533532 0.028435223 -0.024899682 0.0024398912
-0.020227863 0.019234704 -0.0012278334 0.030584322 0.01085981 0.0031962343 -0.0066950233 -0.030354373
-0.02477294 0.00076718256 -0.037833128 0.011361514 0.022546083 -0.038746413 0.019223068 0.015077211
-0.022233153 -0.02347387 0.007101559 0.011377218 0.044598084 -0.01079724 -0.008551814 -0.03028575
-0.018982094 -0.018890474 0.05404014 -0.0336272 0.02562842 0.052663952 0.049015306 -0.004230475
0.00779502 -0.010715849 0.03990053 0.057626605 -0.024356058 -0.013978554 0.015860217 -0.004812743
0.013687173 -0.026522825 0.015902098 0.06982776 0.016547514 -0.010330243 2.8703527e-05 0.01200832
-0.009934044 0.00068810233 -0.00429353 -0.0060282545 0.028328149 -0.0079667205 0.0022235918 -0.033819713
0.0054736757 -0.02080394 -0.030656133 -0.0061582834 0.017556753 -0.02029698 -0.03340211 0.008850774
-0.00075006566 -0.029388413 0.004089446 0.038615096 -0.017106425 0.041692585 -0.019808605 0.010750147
-0.0057381345 0.050468773 -0.0053369426 0.03978551 0.0063543804 0.03483162 0.0076789064 -0.027835088
0.052441653 0.04066662 -0.030982213 -0.030334216 -0.020847892 0.05001544 0.0014669226 -0.049058374
-0.007610604 0.0133476565 -0.017108662 -0.015618409 -0.04379602 -0.012847659 -0.03828578 0.004272231
-0.0046720984 0.0028091792 -0.0293793 0.063599624 -0.013969425 0.029747901 0.030907467 0.02394847
-0.025391161 0.017431783 -0.018252486 -0.02435633 -0.017135069 -0.048712455 0.053978253 -0.011250893
0.0115258545 -0.012025676 -0.023411432 0.0059366426 -0.0030686804 0.0013783238 -0.025513917 0.01344031

action_model._continuous_distribution.log_sigma f4 [1, 2]
00000000: a30b fcbd 3b69 2bbe
-0.12306907 -0.16739361

action_model._continuous_distribution.mu.weight f4 [2, 128]
00000000: d895 5bbc 2a46 32bd 4ba7 ae3c b6e1 efbc
00000010: 519b 183d 173f 123d fd28 1dbd 201e f03c
00000020: 986c 02bd c09b a3bd 90ec b33c 935c 6c3c
00000030: 11f0 8639 afe5 a0bc f199 093d 459e 1a3b
00000040: e720 2abd 7e03 0dbd 4ece 1a3c 01d0 5dbd
00000050: 0fab fdba 4e68 febb 7a59 b6bc 8240 023d
00000060: f2ae b4bc 17d5 373c 8f8e 9e39 9be9 b53c
00000070: 9c19 b13d b54e f03b 07f2 51bd 73dd 97bb
00000080: 0f49 f03b 97c1 00bd 8f98 04be 70cd 983c
00000090: ca62 0cbd cd52 813d c319 933d e833 79bc
000000a0: 507e 2abd 9a57 13bc 093b 843d 0681 943d
000000b0: 0ced 07bc 7a99 3b3a ebf7 663c f3c4 34bd
000000c0: 0ad9 70bd 2e70 d6bb 1490 fa3c e060 f03d
000000d0: 1e2a 1c3d 5f3a 3bbb 9a07 43bd 1bab 49bc
000000e0: a2db 6bbc 7c4d b5bc 24f2 c23c a679 68bd
000000f0: ac98 143d 0431 cf3a 0aec 613b 9e9f 98bc
00000100: d85f 083c bebd 883c c06d 73bb 334c d63c
00000110: 6145 bb3c bf29 49bb d7cf 223c 96ac 09bd
00000120: d73e 4fbd d543 12bb 2ece 02bd 9e66 1f3d
00000130: bc1d 2dbc 8578 dcbd b141 53bc 452a 5abd
00000140: acf1 85bc db79 ae3c 94a7 fcbd 9ca2 7bbd
00000150: e3e4 153d 2645 83bd d066 a5bd 0292 43bc
00000160: 9549 a7bc a071 663c fe79 55bc b906 f6bb
00000170: 26d2 95bc 25c3 c93d fdde bd3b 6129 613b
00000180: bae0 ffbc ac7a bfbd bdc1 a83c 47f9 2f3c
00000190: 19e9 ee3b df25 ac3b 2ee3 4dbb f923 143c
000001a0: 4fb0 6abd 9a06 013d aa2b 9a3c 88e6 fd3d
000001b0: c89f f2bb 84a7 d0bd d44a 783d bc34 843d
000001c0: a270 56bb 1e9e 52bc 333a f9bc b664 0dbd
000001d0: 5560 c63b 8466 3b3b a700 723d 1c0f 863c
000001e0: fff6 153d 9d0f 903c 46f6 7fb9 d4fd f63c
000001f0: f23b 753c b4f1 9c3c 5945 803a 6dc2 953c
00000200: f92b 1f3c 5f53 f73c db9e 133c 47ba e3bc
00000210: 5904 923c 91fb a43b a7c5 f53b c14d a8bc
00000220: 3dc7 9ebb ff68 cc3c 947c 813c ccd3 90bd
00000230: 9fac 0fbb f656 213d 3b44 0bbd de2d f4ba
00000240: 114e 10bd 0bb8 163d cc92 09bc 1931 89bc
00000250: e563 463d 4699 be3b 5735 62bd 08ff 3c3c
00000260: 4c3b cabc 4ea2 89bc 28a1 2a3d 0e6d 3f3c
00000270: a109 18bd 3781 683a 1864 8b3c c161 01bc
00000280: d2ba cb3b bbcb 97bc 9e0c 6dbd 42a8 913a
00000290: e1f0 983d 3101 283d 6427 e5bc f918 f33c
000002a0: b543 043d f73b 94bc 1cb5 4cbd b0c9 973d
000002b0: b7ac 5d3b 36eb ab3b da0f 3fbd be7e 4d3a
000002c0: 15fc 1dbd 913b b8bb 761e 9a3b 6d5f 0ebd
000002d0: e728 93bb 73ab bc3c 54fb c0bc 66fd 6b3d
000002e0: 7401 d63c c8c0 5b3d 1f1f c8bc f601 59bb
000002f0: 9e5f 603d 3584 8f3c b0af de3c e8e5 d4bc
00000300: d553 c1bc d632 32bc 113d 163c 1f10 2fbc
00000310: bdae c73c ef0a aab9 8458 9cbb 1e27 65bd
00000320: f8be 84bc 31ba b93a 8e81 053d 78b6 c43d
00000330: 0eef 09bc f482 05bd 9475 113d 0341 623d
00000340: 609c f53c 0f2a c5bd df58 0bbd dca5 89bd
00000350: 1558 fdbb 28da 043d e38e d2bb 6fa2 633c
00000360: b401 d0bd b8c7 bfbd a3d1 053c 60bf 26bc
00000370: 22d8 143c 8e71 c3bc 6201 03bd 5ef3 853a
00000380: 7f18 023d 58d0 df3b b86b 57bc 9a87 593c
00000390: a66e 1dbc 9a9d 16ba 649f 7fbc 6e7d cfb9
000003a0: b96f fbbc 90fe 5ebc 5614 3abc ba36 9b3d
000003b0: 6923 363c ce4b c3bc 648c e43c a5b5 13bd
000003c0: c195 cdba bfd8 223d 1b34 493c 93fb 0abd
000003d0: 2027 8cba 2d97 a4bc 0e21 b03c 5692 0fbc
000003e0: 7706 173d 81aa 9a3a 22ac 69bc 3b9c 5cbc
000003f0: 2d0e b7bc 962c 08ba c23e 8bba 72dc ecbc
-0.013402425 -0.043523945 0.021320006 -0.029282432 0.037257496 0.0357047 -0.038369168 0.02931124
-0.031841844 -0.07988691 0.021963388 0.014426368 0.00025737335 -0.019640772 0.033594076 0.002359287
-0.041535284 -0.03442716 0.009448601 -0.054153446 -0.0019353348 -0.007763899 -0.022259463 0.0317998
-0.022056077 0.011220238 0.00030242323 0.022206118 0.08647463 0.0073336014 -0.051256206 -0.004634553
0.007332928 -0.03143462 -0.12948821 0.018652648 -0.0342739 0.06314621 0.07182648 -0.015210129
-0.041624367 -0.008993054 0.064565726 0.07251172 -0.0082962625 0.00071563537 0.014097194 -0.044133138
-0.058800735 -0.0065441346 0.03058628 0.117372274 0.038126104 -0.0028568727 -0.04761467 -0.012308861
-0.014395626 -0.022131674 0.023797102 -0.056756638 0.03627841 0.0015807454 0.0034472966 -0.018630799
0.008323632 0.016692039 -0.0037144274 0.026159381 0.02286023 -0.0030695049 0.009937248 -0.033611856
-0.050597038 -0.0022318263 -0.03193491 0.038916223 -0.010566171 -0.10765175 -0.01289408 -0.053262968
-0.01635059 0.02129834 -0.123366505 -0.061434373 0.036595237 -0.064096734 -0.080762506 -0.011936666
-0.020420829 0.014065176 -0.0130295735 -0.0075081256 -0.018288683 0.09851674 0.0057944045 0.003435694
-0.031235088 -0.0934957 0.020600194 0.010740585 0.007290971 0.005253538 -0.0031415927 0.00904178
-0.057297047 0.031500436 0.018819649 0.12397486 -0.0074043013 -0.10188201 0.060618237 0.06455371
-0.0032720943 -0.012855081 -0.03042326 -0.034519874 0.006053964 0.002859504 0.059082653 0.016364627
0.036612507 0.01758557 -0.00024410439 0.030150332 0.014967905 0.019158222 0.0009786292 0.018281186
0.009715074 0.030191122 0.009010042 -0.027798785 0.017824339 0.005034872 0.0075003686 -0.020544888
-0.0048455284 0.02495241 0.015806474 -0.07071647 -0.0021922959 0.039389573 -0.034000617 -0.0018629392
-0.0352307 0.03679661 -0.0083968155 -0.016747044 0.04843511 0.0058166115 -0.05522665 0.011535414
-0.024686478 -0.016801026 0.041657597 0.0116837155 -0.037118558 0.0008869352 0.017015502 -0.0078968415
0.006217339 -0.018529763 -0.05787336 0.0011112767 0.07467819 0.04101676 -0.027972884 0.029674994
0.032291133 -0.018095 -0.049977407 0.07411516 0.003382487 0.005246545 -0.046645977 0.00078390155
-0.038570482 -0.0056223352 0.0047033383 -0.034758974 -0.00449096 0.023030972 -0.023557343 0.057614706
0.02612374 0.053650647 -0.024428902 -0.003311274 0.054778688 0.017519096 0.027183384 -0.025988534
-0.023599545 -0.010876378 0.009169833 -0.010684996 0.024375314 -0.00032433073 -0.004771294 -0.05594551
-0.016204342 0.0014169869 0.032594256 0.09605116 -0.0084188115 -0.03259559 0.035512522 0.05523778
0.029981792 -0.09627163 -0.0340203 -0.06721088 -0.0077314475 0.032434613 -0.006425725 0.013893708
-0.10156575 -0.09364265 0.008167657 -0.010177463 0.009084733 -0.023857858 -0.03198374 0.0010219624
0.031761643 0.0068302564 -0.013148241 0.013276959 -0.0096089 -0.00057455304 -0.0156019665 -0.0003957557
-0.030692922 -0.013610497 -0.0113573875 0.07578798 0.011116841 -0.023839857 0.027898975 -0.0360619
-0.0015684889 0.039757486 0.012280489 -0.033931326 -0.0010692813 -0.020091617 0.021500137 -0.008762917
0.0368714 0.0011800082 -0.014262231 -0.013464983 -0.022345627 -0.0005194632 -0.0010623562 -0.02891371

action_model._continuous_distribution.mu.bias f4 [2]
00000000: 6650 6c3c 02d9 243a
0.014423465 0.000628844

50 f4 [8]
00000000: 0e2f 4d3d 5d6f 3d3d ca34 153f 7689 2f3e
00000010: 9511 103f f71b f53e f8f9 123f 46ed d93e
0.050093703 0.046248782 0.58283675 0.17142281 0.5627683 0.47872898 0.5741267 0.42563838
